…
er_conv_2d(128, kernel_size = 4, strides = 2, padding = \"same\") %>% \n  layer_activation_leaky_relu(alpha = 0.2) %>% \n  layer_flatten() %>% \n  layer_dropout(0.2) %>% \n  layer_dense(1, activation = \"sigmoid\")\nsummary(discriminator)\n```\n\n::: {.cell-output .cell-output-stdout}\n```\nModel: \"discriminator\"\n________________________________________________________________________________\n Layer (type)                       Output Shape                    Param #     \n================================================================================\n conv2d_2 (Conv2D)                  (None, 32, 32, 64)              3136        \n leaky_re_lu_2 (LeakyReLU)          (None, 32, 32, 64)              0           \n conv2d_1 (Conv2D)                  (None, 16, 16, 128)             131200      \n leaky_re_lu_1 (LeakyReLU)          (None, 16, 16, 128)             0           \n conv2d (Conv2D)                    (None, 8, 8, 128)               262272      \n leaky_re_lu (LeakyReLU)            (None, 8, 8, 128)               0           \n flatten (Flatten)                  (None, 8192)                    0           \n dropout (Dropout)                  (None, 8192)                    0           \n dense (Dense)                      (None, 1)                       8193        \n================================================================================\nTotal params: 404,801\nTrainable params: 404,801\nNon-trainable params: 0\n________________________________________________________________________________\n```\n:::\n:::\n\n\n## Create the generator\n\nIt mirrors the discriminator, replacing `conv_2d` layers with `conv_2d_transpose` layers.\n\n\n::: {.cell
…
 \n  layer_conv_2d_transpose(512, kernel_size = 4, strides = 2, padding = \"same\") %>% \n  layer_activation_leaky_relu(alpha = 0.2) %>% \n  layer_conv_2d(3, kernel_size = 5, padding = \"same\", activation = \"sigmoid\")\n\nsummary(generator)\n```\n\n::: {.cell-output .cell-output-stdout}\n```\nModel: \"generator\"\n________________________________________________________________________________\n Layer (type)                       Output Shape                    Param #     \n================================================================================\n dense_1 (Dense)                    (None, 8192)                    1056768     \n reshape (Reshape)                  (None, 8, 8, 128)               0           \n conv2d_transpose_2 (Conv2DTranspos  (None, 16, 16, 128)            262272      \n e)                                                                             \n leaky_re_lu_5 (LeakyReLU)          (None, 16, 16, 128)             0           \n conv2d_transpose_1 (Conv2DTranspos  (None, 32, 32, 256)            524544      \n e)                                                                             \n leaky_re_lu_4 (LeakyReLU)          (None, 32, 32, 256)             0           \n conv2d_transpose (Conv2DTranspose)  (None, 64, 64, 512)            2097664     \n leaky_re_lu_3 (LeakyReLU)          (None, 64, 64, 512)             0           \n conv2d_3 (Conv2D)                  (None, 64, 64, 3)               38403       \n================================================================================\nTotal params: 3,979,651\nTrainable params: 3,979,651\nNon-trainable params: 0\n________________________________________________________________________________\n```\n:::\n:::\n\n\n## Override `train_step`\n\n\n::: {.cell}\n\n```{.r .cell-code}\ngan <- new_model_class(\n  \"gan\",\n  initialize = function(dis
…
