…
inputs = list(sentence, question), outputs = preds)\nmodel %>% compile(\n  optimizer = \"adam\",\n  loss = \"categorical_crossentropy\",\n  metrics = \"accuracy\"\n)\n\nmodel\n```\n\n::: {.cell-output .cell-output-stdout}\n```\nModel: \"model\"\n________________________________________________________________________________\n Layer (type)             Output Shape      Param #  Connected to               \n================================================================================\n input_2 (InputLayer)     [(None, 5)]       0        []                         \n embedding_1 (Embedding)  (None, 5, 50)     1800     ['input_2[0][0]']          \n input_1 (InputLayer)     [(None, 552)]     0        []                         \n dropout_1 (Dropout)      (None, 5, 50)     0        ['embedding_1[0][0]']      \n embedding (Embedding)    (None, 552, 50)   1800     ['input_1[0][0]']          \n lstm (LSTM)              (None, 50)        20200    ['dropout_1[0][0]']        \n dropout (Dropout)        (None, 552, 50)   0        ['embedding[0][0]']        \n repeat_vector (RepeatVec  (None, 552, 50)  0        ['lstm[0][0]']             \n tor)                                                                           \n add (Add)                (None, 552, 50)   0        ['dropout[0][0]',          \n                                                      'repeat_vector[0][0]']    \n lstm_1 (LSTM)            (None, 50)        20200    ['add[0][0]']              \n dropout_2 (Dropout)      (None, 50)        0        ['lstm_1[0][0]']           \n dense (Dense)            (None, 36)        1836     ['dropout_2[0][0]']        \n================================================================================\nTotal params: 45,836\nTrainable params: 45,836\nNon-trainable params: 0\n________________________________________________________________________________\n```\n:::\n\n```{.r .cell-code}\n# Training ----------------------------------------------------------------\n\nmodel %>% fit(\n  
…
