…
dense(units = length(char_table))) %>%\n  layer_activation(\"softmax\")\n\n# Compiling the model\nmodel %>% compile(\n  loss = \"categorical_crossentropy\", \n  optimizer = \"adam\", \n  metrics = \"accuracy\"\n)\n\n# Get the model summary\nsummary(model)\n```\n\n::: {.cell-output .cell-output-stdout}\n```\nModel: \"sequential\"\n____________________________________________________________________________\n Layer (type)                     Output Shape                  Param #     \n============================================================================\n lstm (LSTM)                      (None, 128)                   72192       \n repeat_vector (RepeatVector)     (None, 3, 128)                0           \n lstm_1 (LSTM)                    (None, 3, 128)                131584      \n time_distributed (TimeDistribute  (None, 3, 12)                1548        \n d)                                                                         \n activation (Activation)          (None, 3, 12)                 0           \n============================================================================\nTotal params: 205,324\nTrainable params: 205,324\nNon-trainable params: 0\n____________________________________________________________________________\n```\n:::\n\n```{.r .cell-code}\n# Fitting loop\nmodel %>% fit( \n  x = x_train, \n  y = y_train, \n  batch_size = BATCH_SIZE, \n  epochs = 70,\n  validation
…
