…
n  optimizer = optimizer_adam(learning_rate = 1e-4),\n  metrics = c(\"sparse_categorical_accuracy\")\n)\n\nmodel\n```\n\n::: {.cell-output .cell-output-stdout}\n```\nModel: \"model\"\n____________________________________________________________________________\n Layer (type)            Output Shape    Param #  Connected to              \n============================================================================\n input_1 (InputLayer)    [(None, 500, 1  0        []                        \n                         )]                                                 \n multi_head_attention (M  (None, 500, 1)  7169    ['input_1[0][0]',         \n ultiHeadAttention)                                'input_1[0][0]']         \n dropout (Dropout)       (None, 500, 1)  0        ['multi_head_attention[0][\n                                                  0]']                      \n layer_normalization (La  (None, 500, 1)  2       ['dropout[0][0]']         \n yerNormalization)                                                          \n tf.math.add (TFOpLambda  (None, 500, 1)  0       ['layer_normalization[0][0\n )                                                ]',                       \n                                                   'input_1[0][0]']         \n conv1d_1 (Conv1D)       (None, 500, 4)  8        ['tf.math.add[0][0]']     \n dropout_1 (Dropout)     (None, 500, 4)  0        ['conv1d_1[0][0]']        \n conv1d (Conv1D)         (None, 500, 1)  5        ['dropout_1[0][0]']       \n layer_normalization_1 (  (None, 500, 1)  2       ['conv1d[0][0]']          \n LayerNormalization)                                                        \n tf.math.add_1 (TFOpLamb  (None, 500, 1)  0       ['layer_normalization_1[0]\n da)                                              [0]',                     \n                                                   'tf.math.add[0][0]']     \n multi_head_attention_1   (None, 500, 1)  7169    ['tf.math.add_1[0][0]',   \n (MultiHeadAttention)                              'tf.math.add_1[0][0]']   \n dropout_2 (Dropout)     (None, 500, 1)  0        ['multi_head_attention_1[0\n                                                  ][0]']                    \n layer_normalization_2 (  (None, 500, 1)  2       ['dropout_2[0][0]']       \n LayerNormalization)                                                        \n tf.math.add_2 (TFOpLamb  (None, 500, 1)  0       ['layer_normalization_2[0]\n da)                                              [0]',                     \n                                                   'tf.math.add_1[0][0]']   \n conv1d_3 (Conv1D)       (None, 500, 4)  8        ['tf.math.add_2[0][0]']   \n dropout_3 (Dropout)     (None, 500, 4)  0        ['conv1d_3[0][0]']        \n conv1d_2 (Conv1D)       (None, 500, 1)  5        ['dropout_3[0][0]']       \n layer_normalization_3 (  (None, 500, 1)  2       ['conv1d_2[0][0]']        \n LayerNormalization)                                                        \n tf.math.add_3 (TFOpLamb  (None, 500, 1)  0       ['layer_normalization_3[0]\n da)                                              [0]',                     \n                                                   'tf.math.add_2[0][0]']   \n multi_head_attention_2   (None, 500, 1)  7169    ['tf.math.add_3[0][0]',   \n (MultiHeadAttention)                              'tf.math.add_3[0][0]']   \n dropout_4 (Dropout)     (None, 500, 1)  0        ['multi_head_attention_2[0\n                                                  ][0]']                    \n layer_normalization_4 (  (None, 500, 1)  2       ['dropout_4[0][0]']       \n LayerNormalization)                                                        \n tf.math.add_4 (TFOpLamb  (None, 500, 1)  0       ['layer_normalization_4[0]\n da)                                              [0]',                     \n                                                   'tf.math.add_3[0][0]']   \n conv1d_5 (Conv1D)       (None, 500, 4)  8        ['tf.math.add_4[0][0]']   \n dropout_5 (Dropout)     (None, 500, 4)  0        ['conv1d_5[0][0]']        \n conv1d_4 (Conv1D)       (None, 500, 1)  5        ['dropout_5[0][0]']       \n layer_normalization_5 (  (None, 500, 1)  2       ['conv1d_4[0][0]']        \n LayerNormalization)                                                        \n tf.math.add_5 (TFOpLamb  (None, 500, 1)  0       ['layer_normalization_5[0]\n da)                                              [0]',                     \n                                                   'tf.math.add_4[0][0]']   \n multi_head_attention_3   (None, 500, 1)  7169    ['tf.math.add_5[0][0]',   \n (MultiHeadAttention)                              'tf.math.add_5[0][0]']   \n dropout_6 (Dropout)     (None, 500, 1)  0        ['multi_head_attention_3[0\n                                                  ][0]']                    \n layer_normalization_6 (  (None, 500, 1)  2       ['dropout_6[0][0]']       \n LayerNormalization)                                                        \n tf.math.add_6 (TFOpLamb  (None, 500, 1)  0       ['layer_normalization_6[0]\n da)                                              [0]',                     \n                                                   'tf.math.add_5[0][0]']   \n conv1d_7 (Conv1D)       (None, 500, 4)  8        ['tf.math.add_6[0][0]']   \n dropout_7 (Dropout)     (None, 500, 4)  0        ['conv1d_7[0][0]']        \n conv1d_6 (Conv1D)       (None, 500, 1)  5        ['dropout_7[0][0]']       \n layer_normalization_7 (  (None, 500, 1)  2       ['conv1d_6[0][0]']        \n LayerNormalization)                                                        \n tf.math.add_7 (TFOpLamb  (None, 500, 1)  0       ['layer_normalization_7[0]\n da)                                              [0]',                     \n                                                   'tf.math.add_6[0][0]']   \n global_average_pooling1  (None, 500)    0        ['tf.math.add_7[0][0]']   \n d (GlobalAveragePooling                                                    \n 1D)                                                                        \n dense (Dense)           (None, 128)     64128    ['global_average_pooling1d\n                                                  [0][0]']                  \n dropout_8 (Dropout)     (None, 128)     0        ['dense[0][0]']           \n dense_1 (Dense)         (None, 2)       258      ['dropout_8[0][0]']       \n============================================================================\nTotal params: 93,130\nTrainable params: 93,130\nNon-trainable params: 0\n____________________________________________________________________________\n```\n:::\n\n```{.r .cell-code}\ncallbacks <- list(\n  callback_early_stopping(patience = 10, restore_best_weights = TRUE))\n\nhistory <- 
…
