…
ation = \"relu\") %>%\n  layer_conv_2d(32, 3, activation = \"relu\") %>%\n  layer_max_pooling_2d(3) %>%\n  layer_conv_2d(32, 3, activation = \"relu\") %>%\n  layer_conv_2d(32, 3, activation = \"relu\") %>%\n  layer_max_pooling_2d(2)\n\n# And now?\nmodel\n```\n\n::: {.cell-output .cell-output-stdout}\n```\nModel: \"sequential_5\"\n____________________________________________________________________________\n Layer (type)                     Output Shape                  Param #     \n============================================================================\n conv2d_1 (Conv2D)                (None, 123, 123, 32)          2432        \n conv2d (Conv2D)                  (None, 121, 121, 32)          9248        \n max_pooling2d (MaxPooling2D)     (None, 40, 40, 32)            0           \n conv2d_5 (Conv2D)                (None, 38, 38, 32)            9248        \n conv2d_4 (Conv2D)                (None, 36, 36, 32)            9248        \n max_pooling2d_2 (MaxPooling2D)   (None, 12, 12, 32)            0           \n conv2d_3 (Conv2D)                (None, 10, 10, 32)            9248        \n conv2d_2 (Conv2D)                (None, 8, 8, 32)              9248        \n max_pooling2d_1 (MaxPooling2D)   (None, 4, 4, 32)              0           \n============================================================================\nTotal params: 48,672\nTrainable params: 48,672\nNon-trainable params: 0\n____________________________________________________________________________\n```\n:::\n\n```{.r .cell-code}\n# Now that we have 4x4 feature maps, time to apply global max pooling.\nmodel %>% layer_global_max_pooling_2d()\n\n# Finally, 
…
