…
n  base_model(training = FALSE) %>%\n  layer_global_average_pooling_2d() %>%\n  layer_dropout(.2) %>%\n  layer_dense(1)\n\nmodel <- keras_model(inputs, outputs)\nmodel\n```\n\n::: {.cell-output .cell-output-stdout}\n```\nModel: \"model_1\"\n________________________________________________________________________________\n Layer (type)                  Output Shape               Param #    Trainable  \n================================================================================\n input_7 (InputLayer)          [(None, 150, 150, 3)]      0          Y          \n sequential_3 (Sequential)     (None, 150, 150, 3)        0          Y          \n rescaling (Rescaling)         (None, 150, 150, 3)        0          Y          \n xception (Functional)         (None, 5, 5, 2048)         20861480   N          \n global_average_pooling2d_1 (G  (None, 2048)              0          Y          \n lobalAveragePooling2D)                                                         \n dropout (Dropout)             (None, 2048)               0          Y          \n dense_8 (Dense)               (None, 1)                  2049       Y          \n================================================================================\nTotal params: 20,863,529\nTrainable params: 2,049\nNon-trainable params: 20,861,480\n________________________________________________________________________________\n```\n:::\n:::\n\n\n## Train the top layer\n\n\n::: {.cell}\n\n```{.r .cell-code}\nmodel %>% compile(\n  optimizer = optimizer_adam(
…
