…
es))) %>%\n  layer_dense(256, activation = \"relu\") %>%\n  layer_dense(256, activation = \"relu\") %>%\n  layer_dropout(0.3) %>%\n  layer_dense(256, activation = \"relu\") %>%\n  layer_dropout(0.3) %>%\n  layer_dense(1, activation = \"sigmoid\")\n\nmodel\n```\n\n::: {.cell-output .cell-output-stdout}\n```\nModel: \"sequential\"\n____________________________________________________________________________\n Layer (type)                     Output Shape                  Param #     \n============================================================================\n dense_3 (Dense)                  (None, 256)                   7936        \n dense_2 (Dense)                  (None, 256)                   65792       \n dropout_1 (Dropout)              (None, 256)                   0           \n dense_1 (Dense)                  (None, 256)                   65792       \n dropout (Dropout)                (None, 256)                   0           \n dense (Dense)                    (None, 1)                     257         \n============================================================================\nTotal params: 139,777\nTrainable params: 139,777\nNon-trainable params: 0\n____________________________________________________________________________\n```\n:::\n:::\n\n\n## Train the model with `class_weight` argument\n\n\n::: {.cell}\n\n```{.r .cell-code}\nmetrics <- list(\n  metric_false_negatives(name = \
…
