…
= 'elu') %>%\n  layer_dense(512, activation = 'elu') %>%\n  layer_dense(1)\n```\n:::\n\n\nAnd, again, train the model using the same data:\n\n\n::: {.cell}\n\n```{.r .cell-code}\nsize_histories[['large']] <- compile_and_fit(large_model, \"sizes/large\")\n```\n\n::: {.cell-output .cell-output-stdout}\n```\nModel: \"sequential_3\"\n____________________________________________________________________________\n Layer (type)                     Output Shape                  Param #     \n============================================================================\n dense_13 (Dense)                 (None, 512)                   14848       \n dense_12 (Dense)                 (None, 512)                   262656      \n dense_11 (Dense)                 (None, 512)                   262656      \n dense_10 (Dense)                 (None, 512)                   262656      \n dense_9 (Dense)                  (None, 1)                     513         \n============================================================================\nTotal params: 803,329\nTrainable params: 803,329\nNon-trainable params: 0\n____________________________________________________________________________\n```\n:::\n:::\n\n\n### Plot the training and validation losses\n\nThe solid lines show the training loss, and the dashed lines show the validation loss (remem
…
 layer_dense(512, activation = 'elu') %>%\n  layer_dropout(0.5) %>%\n  layer_dense(512, activation = 'elu') %>%\n  layer_dropout(0.5) %>%\n  layer_dense(1)\n\nregularizer_histories[['dropout']] <- compile_and_fit(dropout_model, \"regularizers/dropout\")\n```\n\n::: {.cell-output .cell-output-stdout}\n```\nModel: \"sequential_5\"\n____________________________________________________________________________\n Layer (type)                     Output Shape                  Param #     \n============================================================================\n dense_23 (Dense)                 (None, 512)                   14848       \n dropout_3 (Dropout)              (None, 512)                   0           \n dense_22 (Dense)                 (None, 512)                   262656      \n dropout_2 (Dropout)              (None, 512)                   0           \n dense_21 (Dense)                 (None, 512)                   262656      \n dropout_1 (Dropout)              (None, 512)                   0           \n dense_20 (Dense)                 (None, 512)                   262656      \n dropout (Dropout)                (None, 512)                   0           \n dense_19 (Dense)                 (None, 1)                     513         \n============================================================================\nTotal params: 803,329\nTrainable params: 803,329\nNon-trainable params: 0\n____________________________________________________________________________\n```\n:::\n:::\n\n::: {.cell}\n\n```{.r .cell-code}\nplot_histories(regularizer_histories)\n```\n\n::: {.cell-output .cell-output-stderr}\n```\n`geom_smooth()`
…
