…
n = \"relu\") %>%\n  layer_conv_2d(16, 3, activation = \"relu\") %>%\n  layer_global_max_pooling_2d()\n\nencoder <- keras_model(encoder_input, encoder_output, \n                       name = \"encoder\")\nencoder\n\nModel: \"encoder\"\n________________________________________________________________________________\n Layer (type)                       Output Shape                    Param #     \n================================================================================\n img (InputLayer)                   [(None, 28, 28, 1)]             0           \n conv2d_3 (Conv2D)                  (None, 26, 26, 16)              160         \n conv2d_2 (Conv2D)                  (None, 24, 24, 32)              4640        \n max_pooling2d (MaxPooling2D)       (None, 8, 8, 32)                0           \n conv2d_1 (Conv2D)                  (None, 6, 6, 32)                9248        \n conv2d (Conv2D)                    (None, 4, 4, 16)                4624        \n global_max_pooling2d (GlobalMaxPoo  (None, 16)                     0           \n ling2D)                                                                        \n================================================================================\nTotal params: 18,672\nTrainable params: 18,672\nNon-trainable params: 0\n________________________________________________________________________________\n\ndecoder_output <- encoder_output %>%\n  layer_reshape(c(4, 4, 1)) 
…
ctivation = \"relu\") %>%\n  layer_conv_2d_transpose(1, 3, activation = \"relu\")\n\nautoencoder <- keras_model(encoder_input, decoder_output, \n                           name = \"autoencoder\")\nautoencoder\n\nModel: \"autoencoder\"\n________________________________________________________________________________\n Layer (type)                       Output Shape                    Param #     \n================================================================================\n img (InputLayer)                   [(None, 28, 28, 1)]             0           \n conv2d_3 (Conv2D)                  (None, 26, 26, 16)              160         \n conv2d_2 (Conv2D)                  (None, 24, 24, 32)              4640        \n max_pooling2d (MaxPooling2D)       (None, 8, 8, 32)                0           \n conv2d_1 (Conv2D)                  (None, 6, 6, 32)                9248        \n conv2d (Conv2D)                    (None, 4, 4, 16)                4624        \n global_max_pooling2d (GlobalMaxPoo  (None, 16)                     0           \n ling2D)                                                                        \n reshape (Reshape)                  (None, 4, 4, 1)                 0           \n conv2d_transpose_3 (Conv2DTranspos  (None, 6, 6, 16)               160         \n e)                                                                             \n conv2d_transpose_2 (Conv2DTranspos  (None, 8, 8, 32)               4640        \n e)                                                                             \n up_sampling2d (UpSampling2D)       (None, 24, 24, 32)              0           \n conv2d_transpose_1 (Conv2DTranspos  (None, 26, 26, 16)             4624        \n e)                                                                             \n conv2d_transpose (Conv2DTranspose)  (None, 28, 28, 1)              145         \n================================================================================\nTotal params: 28,241\nTrainable params: 28,241\nNon-trainable params: 0\n________________________________________________________________________________\n\n\nHere, the decoding architecture is strictly symmetrical to the encoding architecture, so the output shape is the same as the input shape (28, 28, 1).\nThe reverse of a Conv2D layer is a Conv2DTranspose layer, and the reverse of a MaxPooling2D layer is an UpSampling2D layer."
…
d_transpose(16, 3, activation = \"relu\") %>%\n  layer_conv_2d_transpose(1, 3, activation = \"relu\")\n\ndecoder <- keras_model(decoder_input, decoder_output, \n                       name = \"decoder\")\ndecoder\n\nModel: \"decoder\"\n________________________________________________________________________________\n Layer (type)                       Output Shape                    Param #     \n================================================================================\n encoded_img (InputLayer)           [(None, 16)]                    0           \n reshape_1 (Reshape)                (None, 4, 4, 1)                 0           \n conv2d_transpose_7 (Conv2DTranspos  (None, 6, 6, 16)               160         \n e)                                                                             \n conv2d_transpose_6 (Conv2DTranspos  (None, 8, 8, 32)               4640        \n e)                                                                             \n up_sampling2d_1 (UpSampling2D)     (None, 24, 24, 32)              0           \n conv2d_transpose_5 (Conv2DTranspos  (None, 26, 26, 16)             4624        \n e)                                                                             \n conv2d_transpose_4 (Conv2DTranspos  (None, 28, 28, 1)              145         \n e)                                                                             \n================================================================================\nTotal params: 9,569\nTrainable params: 9,569\nNon-trainable params: 0\n________________________________________________________________________________\n\nautoencoder_input <- layer_input(shape = c(28, 28, 1), name = \"img\")
…
===============================================================================\n img (InputLayer)         [(None, 32, 32,   0        []                         \n                          3)]                                                   \n conv2d_9 (Conv2D)        (None, 30, 30, 3  896      ['img[0][0]']              \n                          2)                                                    \n conv2d_8 (Conv2D)        (None, 28, 28, 6  18496    ['conv2d_9[0][0]']         \n                          4)                                                    \n max_pooling2d_2 (MaxPool  (None, 9, 9, 64)  0       ['conv2d_8[0][0]']         \n ing2D)                                                                         \n conv2d_11 (Conv2D)       (None, 9, 9, 64)  36928    ['max_pooling2d_2[0][0]']  \n conv2d_10 (Conv2D)       (None, 9, 9, 64)  36928    ['conv2d_11[0][0]']        \n add (Add)                (None, 9, 9, 64)  0        ['conv2d_10[0][0]',        \n                                                      'max_pooling2d_2[0][0]']  \n conv2d_13 (Conv2D)       (None, 9, 9, 64)  36928    ['add[0][0]']              \n conv2d_12 (Conv2D)       (None, 9, 9, 64)  36928    ['conv2d_13[0][0]']        \n add_1 (Add)              (None, 9, 9, 64)  0        ['conv2d_12[0][0]',        \n                                                      'add[0][0]']              \n conv2d_14 (Conv2D)       (None, 7, 7, 64)  36928    ['add_1[0][0]']            \n global_average_pooling2d  (None, 64)       0        ['conv2d_14[0][0]']        \n  (GlobalAveragePooling2D                                                       \n )                                                                              \n dense_8 (Dense)          (None, 256)       16640    ['global_average_pooling2d[\n                                                     0][0]']                    \n dropout (Dropout)        (None, 256)       0        ['dense_8[0][0]']          \n dense_7 (Dense)          (None, 10)        2570     ['dropout[0][0]']          \n================================================================================\nTotal params: 223,242\nTrainable params: 223,242\nNon-trainable params: 0\n________________________________________________________________________________\n\n\nPlot the model:\n\nplot(model, show_shapes = TRUE)\n\n\n\n\nNow train the model:\n\nc(c(x_train, y_train), c(x_test, y_test
…
l %>%\n  layer_conv_2d(32, 3, activation = \"relu\") %>%\n  layer_conv_2d(32, 3, activation = \"relu\") %>%\n  layer_max_pooling_2d(3) %>%\n  layer_conv_2d(32, 3, activation = \"relu\") %>%\n  layer_conv_2d(32, 3, activation = \"relu\") %>%\n  layer_max_pooling_2d(2) \n\n# And now?\nmodel\n\nModel: \"sequential_5\"\n________________________________________________________________________________\n Layer (type)                       Output Shape                    Param #     \n================================================================================\n conv2d_1 (Conv2D)                  (None, 123, 123, 32)            2432        \n conv2d (Conv2D)                    (None, 121, 121, 32)            9248        \n max_pooling2d (MaxPooling2D)       (None, 40, 40, 32)              0           \n conv2d_5 (Conv2D)                  (None, 38, 38, 32)              9248        \n conv2d_4 (Conv2D)                  (None, 36, 36, 32)              9248        \n max_pooling2d_2 (MaxPooling2D)     (None, 12, 12, 32)              0           \n conv2d_3 (Conv2D)                  (None, 10, 10, 32)              9248        \n conv2d_2 (Conv2D)                  (None, 8, 8, 32)                9248        \n max_pooling2d_1 (MaxPooling2D)     (None, 4, 4, 32)                0           \n================================================================================\nTotal params: 48,672\nTrainable params: 48,672\nNon-trainable params: 0\n________________________________________________________________________________\n\n# Now that we have 4x4 feature maps, time to apply global max pooling.\nmodel %>% layer_global_max_pooling_2d()\n\n# Finally, we add a classification layer.\nmodel %>% layer_dense(10)\n\nVery practical, right?"
…
  # base_model is running in inference mode here.\n  base_model(training = FALSE) %>%\n  layer_global_average_pooling_2d() %>%\n  layer_dropout(.2) %>%\n  layer_dense(1)\n\nmodel <- keras_model(inputs, outputs)\nmodel\n\nModel: \"model_1\"\n________________________________________________________________________________\n Layer (type)                  Output Shape               Param #    Trainable  \n================================================================================\n input_7 (InputLayer)          [(None, 150, 150, 3)]      0          Y          \n sequential_3 (Sequential)     (None, 150, 150, 3)        0          Y          \n rescaling (Rescaling)         (None, 150, 150, 3)        0          Y          \n xception (Functional)         (None, 5, 5, 2048)         20861480   N          \n global_average_pooling2d_1 (G  (None, 2048)              0          Y          \n lobalAveragePooling2D)                                                         \n dropout (Dropout)             (None, 2048)               0          Y          \n dense_8 (Dense)               (None, 1)                  2049       Y          \n================================================================================\nTotal params: 20,863,529\nTrainable params: 2,049\nNon-trainable params: 20,861,480\n________________________________________________________________________________"
  },
  {
    "objectID": "guides/keras/transfer_learning.html#train-the-top-layer",
    "href": "guides/keras/transfer_learning.html#train-the-top-layer",
…
