…
ke sure that the\n  # base_model is running in inference mode here.\n  base_model(training = FALSE) %>%\n  layer_global_average_pooling_2d() %>%\n  layer_dropout(.2) %>%\n  layer_dense(1)\n\nmodel <- keras_model(inputs, outputs)\nmodel\n\nModel: \"model_1\"\n____________________________________________________________________________\n Layer (type)                Output Shape              Param #   Trainable  \n============================================================================\n input_7 (InputLayer)        [(None, 150, 150, 3)]     0         Y          \n sequential_3 (Sequential)   (None, 150, 150, 3)       0         Y          \n rescaling (Rescaling)       (None, 150, 150, 3)       0         Y          \n xception (Functional)       (None, 5, 5, 2048)        20861480  N          \n global_average_pooling2d_1   (None, 2048)             0         Y          \n (GlobalAveragePooling2D)                                                   \n dropout (Dropout)           (None, 2048)              0         Y          \n dense_8 (Dense)             (None, 1)                 2049      Y          \n============================================================================\nTotal params: 20,863,529\nTrainable params: 2,049\nNon-trainable params: 20,861,480\n____________________________________________________________________________"
  },
  {
    "objectID": "keras/guides/transfer_learning.html#train-the-top-layer",
    "href": "keras/guides/transfer_learning.html#train-the-top-layer",
…
