…
acter should be chosen.\n  time_distributed(layer_dense(units = length(char_table))) %>%\n  layer_activation(\"softmax\")\n\n# Compiling the model\nmodel %>% compile(\n  loss = \"categorical_crossentropy\", \n  optimizer = \"adam\", \n  metrics = \"accuracy\"\n)\n\n# Get the model summary\nsummary(model)\n\nModel: \"sequential\"\n____________________________________________________________________________\n Layer (type)                     Output Shape                  Param #     \n============================================================================\n lstm (LSTM)                      (None, 128)                   72192       \n repeat_vector (RepeatVector)     (None, 3, 128)                0           \n lstm_1 (LSTM)                    (None, 3, 128)                131584      \n time_distributed (TimeDistribute  (None, 3, 12)                1548        \n d)                                                                         \n activation (Activation)          (None, 3, 12)                 0           \n============================================================================\nTotal params: 205,324\nTrainable params: 205,324\nNon-trainable params: 0\n____________________________________________________________________________\n\n# Fitting loop\nmodel %>% fit( \n  x = x_train, \n  y = y_train, \n  batch_size = BATCH_SIZE, \n  epochs = 70,\n  validation_data = list(x_val, y_val)\n)\n\n# Predict for a new observation\nnew_obs <- encode(\"55+22\", char_table) %>%\n  array(dim = c(1,5,12))\nresult <- predict(model, new_obs)\nresult <- result[1,,]\ndecode(result, char_table)\n\n[1] \" 77\""
…
s = vocab_size, activation = \"softmax\")\n\nmodel <- keras_model(inputs = list(sentence, question), outputs = preds)\nmodel %>% compile(\n  optimizer = \"adam\",\n  loss = \"categorical_crossentropy\",\n  metrics = \"accuracy\"\n)\n\nmodel\n\nModel: \"model\"\n____________________________________________________________________________\n Layer (type)            Output Shape    Param #  Connected to              \n============================================================================\n input_2 (InputLayer)    [(None, 4)]     0        []                        \n embedding_1 (Embedding)  (None, 4, 50)  1100     ['input_2[0][0]']         \n input_1 (InputLayer)    [(None, 68)]    0        []                        \n dropout_1 (Dropout)     (None, 4, 50)   0        ['embedding_1[0][0]']     \n embedding (Embedding)   (None, 68, 50)  1100     ['input_1[0][0]']         \n lstm (LSTM)             (None, 50)      20200    ['dropout_1[0][0]']       \n dropout (Dropout)       (None, 68, 50)  0        ['embedding[0][0]']       \n repeat_vector (RepeatVe  (None, 68, 50)  0       ['lstm[0][0]']            \n ctor)                                                                      \n add (Add)               (None, 68, 50)  0        ['dropout[0][0]',         \n                                                   'repeat_vector[0][0]']   \n lstm_1 (LSTM)           (None, 50)      20200    ['add[0][0]']             \n dropout_2 (Dropout)     (None, 50)      0        ['lstm_1[0][0]']          \n dense (Dense)           (None, 22)      1122     ['dropout_2[0][0]']       \n============================================================================\nTotal params: 43,722\nTrainable params: 43,722\nNon-trainable params: 0\n____________________________________________________________________________\n\n# Training ----------------------------------------------------------------\n\nmodel %>% fit(\n  x = list(train_vec$stories, train_vec$q
…
yer_activation_leaky_relu(alpha = 0.2) %>% \n  layer_conv_2d(128, kernel_size = 4, strides = 2, padding = \"same\") %>% \n  layer_activation_leaky_relu(alpha = 0.2) %>% \n  layer_flatten() %>% \n  layer_dropout(0.2) %>% \n  layer_dense(1, activation = \"sigmoid\")\nsummary(discriminator)\n\nModel: \"discriminator\"\n________________________________________________________________________________\n Layer (type)                       Output Shape                    Param #     \n================================================================================\n conv2d_2 (Conv2D)                  (None, 32, 32, 64)              3136        \n leaky_re_lu_2 (LeakyReLU)          (None, 32, 32, 64)              0           \n conv2d_1 (Conv2D)                  (None, 16, 16, 128)             131200      \n leaky_re_lu_1 (LeakyReLU)          (None, 16, 16, 128)             0           \n conv2d (Conv2D)                    (None, 8, 8, 128)               262272      \n leaky_re_lu (LeakyReLU)            (None, 8, 8, 128)               0           \n flatten (Flatten)                  (None, 8192)                    0           \n dropout (Dropout)                  (None, 8192)                    0           \n dense (Dense)                      (None, 1)                       8193        \n================================================================================\nTotal params: 404,801\nTrainable params: 404,801\nNon-trainable params: 0\n________________________________________________________________________________"
  },
  {
    "objectID": "examples/dcgan_overriding_train_step.html#create-the-generator",
    "href": "examples/dcgan_overriding_train_step.html#create-the-generator",
…
% \n  layer_activation_leaky_relu(alpha = 0.2) %>% \n  layer_conv_2d_transpose(512, kernel_size = 4, strides = 2, padding = \"same\") %>% \n  layer_activation_leaky_relu(alpha = 0.2) %>% \n  layer_conv_2d(3, kernel_size = 5, padding = \"same\", activation = \"sigmoid\")\n\nsummary(generator)\n\nModel: \"generator\"\n________________________________________________________________________________\n Layer (type)                       Output Shape                    Param #     \n================================================================================\n dense_1 (Dense)                    (None, 8192)                    1056768     \n reshape (Reshape)                  (None, 8, 8, 128)               0           \n conv2d_transpose_2 (Conv2DTranspos  (None, 16, 16, 128)            262272      \n e)                                                                             \n leaky_re_lu_5 (LeakyReLU)          (None, 16, 16, 128)             0           \n conv2d_transpose_1 (Conv2DTranspos  (None, 32, 32, 256)            524544      \n e)                                                                             \n leaky_re_lu_4 (LeakyReLU)          (None, 32, 32, 256)             0           \n conv2d_transpose (Conv2DTranspose)  (None, 64, 64, 512)            2097664     \n leaky_re_lu_3 (LeakyReLU)          (None, 64, 64, 512)             0           \n conv2d_3 (Conv2D)                  (None, 64, 64, 3)               38403       \n================================================================================\nTotal params: 3,979,651\nTrainable params: 3,979,651\nNon-trainable params: 0\n________________________________________________________________________________"
  },
  {
    "objectID": "examples/dcgan_overriding_train_step.html#override-train_step",
    "href": "examples/dcgan_overriding_train_step.html#override-train_step",
…
d(32, 3, activation = \"relu\") %>%\n  layer_conv_2d(16, 3, activation = \"relu\") %>%\n  layer_global_max_pooling_2d()\n\nencoder <- keras_model(encoder_input, encoder_output, \n                       name = \"encoder\")\nencoder\n\nModel: \"encoder\"\n____________________________________________________________________________\n Layer (type)                     Output Shape                  Param #     \n============================================================================\n img (InputLayer)                 [(None, 28, 28, 1)]           0           \n conv2d_3 (Conv2D)                (None, 26, 26, 16)            160         \n conv2d_2 (Conv2D)                (None, 24, 24, 32)            4640        \n max_pooling2d (MaxPooling2D)     (None, 8, 8, 32)              0           \n conv2d_1 (Conv2D)                (None, 6, 6, 32)              9248        \n conv2d (Conv2D)                  (None, 4, 4, 16)              4624        \n global_max_pooling2d (GlobalMaxP  (None, 16)                   0           \n ooling2D)                                                                  \n============================================================================\nTotal params: 18,672\nTrainable params: 18,672\nNon-trainable params: 0\n____________________________________________________________________________\n\ndecoder_output <- encoder_output %>%\n  layer_reshape(c(4, 4, 1)) %>%\n  layer
…
transpose(16, 3, activation = \"relu\") %>%\n  layer_conv_2d_transpose(1, 3, activation = \"relu\")\n\nautoencoder <- keras_model(encoder_input, decoder_output, \n                           name = \"autoencoder\")\nautoencoder\n\nModel: \"autoencoder\"\n____________________________________________________________________________\n Layer (type)                     Output Shape                  Param #     \n============================================================================\n img (InputLayer)                 [(None, 28, 28, 1)]           0           \n conv2d_3 (Conv2D)                (None, 26, 26, 16)            160         \n conv2d_2 (Conv2D)                (None, 24, 24, 32)            4640        \n max_pooling2d (MaxPooling2D)     (None, 8, 8, 32)              0           \n conv2d_1 (Conv2D)                (None, 6, 6, 32)              9248        \n conv2d (Conv2D)                  (None, 4, 4, 16)              4624        \n global_max_pooling2d (GlobalMaxP  (None, 16)                   0           \n ooling2D)                                                                  \n reshape (Reshape)                (None, 4, 4, 1)               0           \n conv2d_transpose_3 (Conv2DTransp  (None, 6, 6, 16)             160         \n ose)                                                                       \n conv2d_transpose_2 (Conv2DTransp  (None, 8, 8, 32)             4640        \n ose)                                                                       \n up_sampling2d (UpSampling2D)     (None, 24, 24, 32)            0           \n conv2d_transpose_1 (Conv2DTransp  (None, 26, 26, 16)           4624        \n ose)                                                                       \n conv2d_transpose (Conv2DTranspos  (None, 28, 28, 1)            145         \n e)                                                                         \n============================================================================\nTotal params: 28,241\nTrainable params: 28,241\nNon-trainable params: 0\n____________________________________________________________________________\n\n\nHere, the decoding architecture is strictly symmetrical to the encoding architecture, so the output shape is the same as the input shape (28, 28, 1).\nThe reverse of a Conv2D layer is a Conv2DTranspose layer, and the reverse of a MaxPooling2D layer is an UpSampling2D layer."
…
>%\n  layer_conv_2d_transpose(16, 3, activation = \"relu\") %>%\n  layer_conv_2d_transpose(1, 3, activation = \"relu\")\n\ndecoder <- keras_model(decoder_input, decoder_output, \n                       name = \"decoder\")\ndecoder\n\nModel: \"decoder\"\n____________________________________________________________________________\n Layer (type)                     Output Shape                  Param #     \n============================================================================\n encoded_img (InputLayer)         [(None, 16)]                  0           \n reshape_1 (Reshape)              (None, 4, 4, 1)               0           \n conv2d_transpose_7 (Conv2DTransp  (None, 6, 6, 16)             160         \n ose)                                                                       \n conv2d_transpose_6 (Conv2DTransp  (None, 8, 8, 32)             4640        \n ose)                                                                       \n up_sampling2d_1 (UpSampling2D)   (None, 24, 24, 32)            0           \n conv2d_transpose_5 (Conv2DTransp  (None, 26, 26, 16)           4624        \n ose)                                                                       \n conv2d_transpose_4 (Conv2DTransp  (None, 28, 28, 1)            145         \n ose)                                                                       \n============================================================================\nTotal params: 9,569\nTrainable params: 9,569\nNon-trainable params: 0\n____________________________________________________________________________\n\nautoencoder_input <- layer_input(shape = c(28, 28, 1), name = \"img\")\nencoded_im
…
0, 250, 3)) # 250x250 RGB images\n  \nmodel %>% \n  layer_conv_2d(32, 5, strides = 2, activation = \"relu\") %>%\n  layer_conv_2d(32, 3, activation = \"relu\") %>%\n  layer_max_pooling_2d(3) \n\n# Can you guess what the current output shape is at this point? Probably not.\n# Let's just print it:\nmodel\n\nModel: \"sequential_5\"\n____________________________________________________________________________\n Layer (type)                     Output Shape                  Param #     \n============================================================================\n conv2d_1 (Conv2D)                (None, 123, 123, 32)          2432        \n conv2d (Conv2D)                  (None, 121, 121, 32)          9248        \n max_pooling2d (MaxPooling2D)     (None, 40, 40, 32)            0           \n============================================================================\nTotal params: 11,680\nTrainable params: 11,680\nNon-trainable params: 0\n____________________________________________________________________________\n\n# The answer was: (40, 40, 32), so we can keep downsampling...\nmodel %>%\n  layer_conv_2d(32, 3, activation = \"relu\") %>%\n  layer_conv_2d(32, 3, activation = \"relu\") %>%\n  layer_max_pooling_2d(3) %>%\n  layer_conv_2d(32, 3, activation = \"relu\") %>%\n  layer_conv_2d(32, 3, activation = \"relu\") %>%\n  layer_max_pooling_2d(2) \n\n# And now?\nmodel\n\nModel: \"sequential_5\"\n____________________________________________________________________________\n Layer (type)                     Output Shape                  Param #     \n============================================================================\n conv2d_1 (Conv2D)                (None, 123, 123, 32)          2432        \n conv2d (Conv2D)                  (None, 121, 121, 32)          9248        \n max_pooling2d (MaxPooling2D)     (None, 40, 40, 32)            0           \n conv2d_5 (Conv2D)                (None, 38, 38, 32)            9248        \n conv2d_4 (Conv2D)                (None, 36, 36, 32)            9248        \n max_pooling2d_2 (MaxPooling2D)   (None, 12, 12, 32)            0           \n conv2d_3 (Conv2D)                (None, 10, 10, 32)            9248        \n conv2d_2 (Conv2D)                (None, 8, 8, 32)              9248        \n max_pooling2d_1 (MaxPooling2D)   (None, 4, 4, 32)              0           \n============================================================================\nTotal params: 48,672\nTrainable params: 48,672\nNon-trainable params: 0\n____________________________________________________________________________\n\n# Now that we have 4x4 feature maps, time to apply global max pooling.\nmodel %>% layer_global_max_pooling_2d()\n\n# Finally, we add a classification layer.\nmodel %>% layer_dense(10)\n\nVery practical, right?"
…
ke sure that the\n  # base_model is running in inference mode here.\n  base_model(training = FALSE) %>%\n  layer_global_average_pooling_2d() %>%\n  layer_dropout(.2) %>%\n  layer_dense(1)\n\nmodel <- keras_model(inputs, outputs)\nmodel\n\nModel: \"model_1\"\n____________________________________________________________________________\n Layer (type)                Output Shape              Param #   Trainable  \n============================================================================\n input_7 (InputLayer)        [(None, 150, 150, 3)]     0         Y          \n sequential_3 (Sequential)   (None, 150, 150, 3)       0         Y          \n rescaling (Rescaling)       (None, 150, 150, 3)       0         Y          \n xception (Functional)       (None, 5, 5, 2048)        20861480  N          \n global_average_pooling2d_1   (None, 2048)             0         Y          \n (GlobalAveragePooling2D)                                                   \n dropout (Dropout)           (None, 2048)              0         Y          \n dense_8 (Dense)             (None, 1)                 2049      Y          \n============================================================================\nTotal params: 20,863,529\nTrainable params: 2,049\nNon-trainable params: 20,861,480\n____________________________________________________________________________"
  },
  {
    "objectID": "guides/keras/transfer_learning.html#train-the-top-layer",
    "href": "guides/keras/transfer_learning.html#train-the-top-layer",
…
, 3), strides = c(2, 2), padding = \"same\") %>% \n  layer_activation_leaky_relu(alpha = 0.2) %>% \n  layer_conv_2d(128, c(3, 3), strides = c(2, 2), padding = \"same\") %>% \n  layer_activation_leaky_relu(alpha = 0.2) %>% \n  layer_global_max_pooling_2d() %>% \n  layer_dense(1)\nsummary(discriminator)\n\nModel: \"discriminator\"\n____________________________________________________________________________\n Layer (type)                     Output Shape                  Param #     \n============================================================================\n conv2d_1 (Conv2D)                (None, 14, 14, 64)            640         \n leaky_re_lu_1 (LeakyReLU)        (None, 14, 14, 64)            0           \n conv2d (Conv2D)                  (None, 7, 7, 128)             73856       \n leaky_re_lu (LeakyReLU)          (None, 7, 7, 128)             0           \n global_max_pooling2d (GlobalMaxP  (None, 128)                  0           \n ooling2D)                                                                  \n dense_6 (Dense)                  (None, 1)                     129         \n============================================================================\nTotal params: 74,625\nTrainable params: 74,625\nNon-trainable params: 0\n____________________________________________________________________________\n\n\nThen let’s create a generator network, that turns latent vectors into outputs of shape (28, 28, 1) (representing MNIST digits):\n\nlatent_dim <- 128\ngenera
…
hape(FEATURES)) %>% \n  layer_dense(512, activation = 'elu') %>% \n  layer_dense(512, activation = 'elu') %>% \n  layer_dense(512, activation = 'elu') %>% \n  layer_dense(1)\n\nAnd, again, train the model using the same data:\n\nsize_histories[['large']] <- compile_and_fit(large_model, \"sizes/large\")\n\nModel: \"sequential_3\"\n____________________________________________________________________________\n Layer (type)                     Output Shape                  Param #     \n============================================================================\n dense_13 (Dense)                 (None, 512)                   14848       \n dense_12 (Dense)                 (None, 512)                   262656      \n dense_11 (Dense)                 (None, 512)                   262656      \n dense_10 (Dense)                 (None, 512)                   262656      \n dense_9 (Dense)                  (None, 1)                     513         \n============================================================================\nTotal params: 803,329\nTrainable params: 803,329\nNon-trainable params: 0\n____________________________________________________________________________\n\n\n\n\nPlot the training and validation losses\nThe solid lines show the training loss, and the dashed lines show the validation loss (remember: a lower vali
…
on = 'elu') %>% \n  layer_dropout(0.5) %>% \n  layer_dense(512, activation = 'elu') %>% \n  layer_dropout(0.5) %>% \n  layer_dense(512, activation = 'elu') %>% \n  layer_dropout(0.5) %>% \n  layer_dense(1)\n\nregularizer_histories[['dropout']] <- compile_and_fit(dropout_model, \"regularizers/dropout\")\n\nModel: \"sequential_5\"\n____________________________________________________________________________\n Layer (type)                     Output Shape                  Param #     \n============================================================================\n dense_23 (Dense)                 (None, 512)                   14848       \n dropout_3 (Dropout)              (None, 512)                   0           \n dense_22 (Dense)                 (None, 512)                   262656      \n dropout_2 (Dropout)              (None, 512)                   0           \n dense_21 (Dense)                 (None, 512)                   262656      \n dropout_1 (Dropout)              (None, 512)                   0           \n dense_20 (Dense)                 (None, 512)                   262656      \n dropout (Dropout)                (None, 512)                   0           \n dense_19 (Dense)                 (None, 1)                     513         \n============================================================================\nTotal params: 803,329\nTrainable params: 803,329\nNon-trainable params: 0\n____________________________________________________________________________\n\n\n\nplot_histories(regularizer_histories)\n\n`geom_smooth()` using method = 'gam' and formula 'y ~ s(x, bs = \"cs\")'\n\n\n\n\n\nIt’s clear from this plot t
…
