…
n  layer_activation_leaky_relu(alpha = 0.2) %>% \n  layer_conv_2d(128, c(3, 3), strides = c(2, 2), padding = \"same\") %>% \n  layer_activation_leaky_relu(alpha = 0.2) %>% \n  layer_global_max_pooling_2d() %>% \n  layer_dense(1)\nsummary(discriminator)\n```\n\n::: {.cell-output .cell-output-stdout}\n```\nModel: \"discriminator\"\n____________________________________________________________________________\n Layer (type)                     Output Shape                  Param #     \n============================================================================\n conv2d_1 (Conv2D)                (None, 14, 14, 64)            640         \n leaky_re_lu_1 (LeakyReLU)        (None, 14, 14, 64)            0           \n conv2d (Conv2D)                  (None, 7, 7, 128)             73856       \n leaky_re_lu (LeakyReLU)          (None, 7, 7, 128)             0           \n global_max_pooling2d (GlobalMaxP  (None, 128)                  0           \n ooling2D)                                                                  \n dense_6 (Dense)                  (None, 1)                     129         \n============================================================================\nTotal params: 74,625\nTrainable params: 74,625\nNon-trainable params: 0\n____________________________________________________________________________\n```\n:::\n:::\n\n\nThen let's create a generator network,\nthat turns latent vectors into outputs of shape `(28, 28, 1)` (representing\nMNIST digits):\n\n\n\n::
…
