…
2d(16, 3, activation = \"relu\") %>%\n  layer_global_max_pooling_2d()\n\nencoder <- keras_model(encoder_input, encoder_output, \n                       name = \"encoder\")\nencoder\n```\n\n::: {.cell-output .cell-output-stdout}\n```\nModel: \"encoder\"\n____________________________________________________________________________\n Layer (type)                     Output Shape                  Param #     \n============================================================================\n img (InputLayer)                 [(None, 28, 28, 1)]           0           \n conv2d_3 (Conv2D)                (None, 26, 26, 16)            160         \n conv2d_2 (Conv2D)                (None, 24, 24, 32)            4640        \n max_pooling2d (MaxPooling2D)     (None, 8, 8, 32)              0           \n conv2d_1 (Conv2D)                (None, 6, 6, 32)              9248        \n conv2d (Conv2D)                  (None, 4, 4, 16)              4624        \n global_max_pooling2d (GlobalMaxP  (None, 16)                   0           \n ooling2D)                                                                  \n============================================================================\nTotal params: 18,672\nTrainable params: 18,672\nNon-trainable params: 0\n____________________________________________________________________________\n```\n:::\n\n```{.r .cell-code}\ndecoder_output <- encoder_output %>%\n  layer_re
…
er_conv_2d_transpose(1, 3, activation = \"relu\")\n\nautoencoder <- keras_model(encoder_input, decoder_output, \n                           name = \"autoencoder\")\nautoencoder\n```\n\n::: {.cell-output .cell-output-stdout}\n```\nModel: \"autoencoder\"\n____________________________________________________________________________\n Layer (type)                     Output Shape                  Param #     \n============================================================================\n img (InputLayer)                 [(None, 28, 28, 1)]           0           \n conv2d_3 (Conv2D)                (None, 26, 26, 16)            160         \n conv2d_2 (Conv2D)                (None, 24, 24, 32)            4640        \n max_pooling2d (MaxPooling2D)     (None, 8, 8, 32)              0           \n conv2d_1 (Conv2D)                (None, 6, 6, 32)              9248        \n conv2d (Conv2D)                  (None, 4, 4, 16)              4624        \n global_max_pooling2d (GlobalMaxP  (None, 16)                   0           \n ooling2D)                                                                  \n reshape (Reshape)                (None, 4, 4, 1)               0           \n conv2d_transpose_3 (Conv2DTransp  (None, 6, 6, 16)             160         \n ose)                                                                       \n conv2d_transpose_2 (Conv2DTransp  (None, 8, 8, 32)             4640        \n ose)                                                                       \n up_sampling2d (UpSampling2D)     (None, 24, 24, 32)            0           \n conv2d_transpose_1 (Conv2DTransp  (None, 26, 26, 16)           4624        \n ose)                                                                       \n conv2d_transpose (Conv2DTranspos  (None, 28, 28, 1)            145         \n e)                                                                         \n============================================================================\nTotal params: 28,241\nTrainable params: 28,241\nNon-trainable params: 0\n____________________________________________________________________________\n```\n:::\n:::\n\n\nHere, the decoding architecture is strictly symmetrical to the 
…
\"relu\") %>%\n  layer_conv_2d_transpose(1, 3, activation = \"relu\")\n\ndecoder <- keras_model(decoder_input, decoder_output, \n                       name = \"decoder\")\ndecoder\n```\n\n::: {.cell-output .cell-output-stdout}\n```\nModel: \"decoder\"\n____________________________________________________________________________\n Layer (type)                     Output Shape                  Param #     \n============================================================================\n encoded_img (InputLayer)         [(None, 16)]                  0           \n reshape_1 (Reshape)              (None, 4, 4, 1)               0           \n conv2d_transpose_7 (Conv2DTransp  (None, 6, 6, 16)             160         \n ose)                                                                       \n conv2d_transpose_6 (Conv2DTransp  (None, 8, 8, 32)             4640        \n ose)                                                                       \n up_sampling2d_1 (UpSampling2D)   (None, 24, 24, 32)            0           \n conv2d_transpose_5 (Conv2DTransp  (None, 26, 26, 16)           4624        \n ose)                                                                       \n conv2d_transpose_4 (Conv2DTransp  (None, 28, 28, 1)            145         \n ose)                                                                       \n============================================================================\nTotal params: 9,569\nTrainable params: 9,569\nNon-trainable params: 0\n____________________________________________________________________________\n```\n:::\n\n```{.r .cell-code}\nautoencoder_input <- layer_input(shape = c(28, 28, 1
…
